data.pth (torch, 4801 bytes, 6 tensors)

l1.weight f4 [8, 44]
000000 ae 3f 40 bd 80 d2 e8 3d 08 50 35 3d 7b 8a 8f bd
       -0.04693573 0.11368275 0.044265777 -0.07008835
000010 8e a8 ab 3d a0 1e bc bc a6 14 4a 3d c8 27 8a 3d
       0.08381759 -0.022963822 0.049336098 0.06745869
000020 20 f7 f5 bb 77 35 06 be 80 a6 bc 3a f4 a3 e1 bc
       -0.0075062662 -0.13106333 0.0014392883 -0.027544
000030 a8 93 99 bd 6b 39 94 bd bc 08 31 bd 45 ed 0e be
       -0.07498866 -0.07237514 -0.04322122 -0.13957699
000040 80 8b 1b 3b 90 9a 5a 3d f4 24 76 3d 90 c4 72 3d
       0.0023734272 0.05337006 0.060093835 0.059269488
000050 a0 7f ed 3d bf 0f 04 3d 04 62 03 3e 83 45 86 3d
       0.11596608 0.03224158 0.12830359 0.06556227
000060 00 90 bf b8 1f cd 9e bd de 6e 24 bd 28 ce 02 be
       -9.134412e-05 -0.077539675 -0.040144794 -0.12773955
000070 46 c2 f5 bd 08 95 8d bc ea b1 35 3d b0 f6 27 3c
       -0.11999945 -0.017282978 0.044359125 0.010251686
000080 ce c0 14 bd 60 0c 06 3d d4 9b 23 bd 48 d5 7e bd
       -0.036316685 0.032726645 -0.03994353 -0.06221512
000090 d1 af d0 bd 48 93 92 3d ba 8a 1d bd f6 da 93 bd
       -0.10189784 0.07156998 -0.038462378 -0.07219498
0000a0 22 e9 bf bd b2 a5 20 bd 1b c0 d3 bd 46 47 4b bd
       -0.093706384 -0.03922052 -0.103393756 -0.04962852
0000b0 8c f5 48 be cb 77 e1 3e f1 b8 25 3e e6 ad 5b 3e
       -0.19624919 0.44036707 0.16183831 0.21453056
0000c0 e6 d0 4a 3f 29 fb 9e be 8a e9 b2 3e a0 6f 39 3e
       0.79225004 -0.31050995 0.349438 0.18108988
0000d0 d9 8b 8f 3e 6e 70 96 3e 0f 87 ed bd 3c 3a 91 3e
       0.28036383 0.29382652 -0.11598026 0.28364742
0000e0 99 05 c5 3e 57 80 49 3f 5f 0e 09 3f ed 0f 52 be
       0.38480833 0.78711456 0.53537554 -0.20513888
0000f0 bb fc 05 3f 5d 44 31 3f 0d ed 85 3e 66 6a e3 3e
       0.5233876 0.6924494 0.26157418 0.44417113
000100 3a b6 b2 3e b0 23 b2 3e e0 45 17 3f 29 47 07 3f
       0.34904653 0.34792852 0.59090996 0.52842957
000110 cd c8 8f be bc a5 b6 3e c9 a7 7b 3e 69 a0 dd be
       -0.28082886 0.3567332 0.24575724 -0.43286446
000120 23 b4 e6 3e e5 04 cc be 5e 8d aa 3e 83 0d ea be
       0.45059308 -0.39847484 0.3331098 -0.45713434
000130 39 03 18 3e 24 3f 9a 3e 28 0c ca bd 46 af ed 3e
       0.1484498 0.30126297 -0.098656 0.46422786
000140 67 4f 36 bf 02 1d 9f be 5e e2 8d 3e cf d2 8b 3e
       -0.7121491 -0.3107682 0.27711767 0.27309272
000150 0f d3 aa 3e bb 0c e5 bd de 9f cd 3d 94 4c 84 bd
       0.3336415 -0.11184069 0.10040258 -0.064599186
000160 36 88 2e be 3d 72 d4 3e 55 96 3e be 11 04 99 be
       -0.17044148 0.41493407 -0.18612035 -0.29885915
000170 e9 77 06 3f 3b 0f d4 be e1 45 b6 3e ad 76 82 3e
       0.5252672 -0.4141787 0.35600188 0.25481167
000180 aa ba 6e be 4b 4a 8f 3e b0 c9 30 be 18 65 10 3f
       -0.23313394 0.2798637 -0.17264438 0.56404257
000190 72 22 2d be 8b 1c f6 3e f8 38 cd be c2 bd 2a be
       -0.16907671 0.48068652 -0.40082526 -0.1667395
0001a0 2a 3d cd be 32 3b cd be a5 a3 bf be b2 f0 24 3e
       -0.40085727 -0.40084225 -0.37429538 0.16107443
0001b0 eb a6 1b 3f a2 8c d0 3e 93 f3 a9 3e 49 69 93 3e
       0.6080157 0.40732294 0.33193645 0.28791264
0001c0 9c e3 13 bd 43 3c ff 3e c4 9f d5 3e d2 87 28 be
       -0.036105737 0.49850664 0.41723454 -0.16458061
0001d0 bd 29 5c 3e 05 6d 99 be eb fa ce 3e e5 a2 44 be
       0.21500297 -0.29965988 0.4042581 -0.19202764
0001e0 f8 6e d9 3d 97 c2 f1 3e 01 39 83 3c cc a1 22 3f
       0.10616869 0.47218773 0.016018393 0.6352813
0001f0 13 56 2c bf 78 27 83 bd 49 b8 77 3e 1c 68 c0 be
       -0.6731884 -0.064040124 0.24191393 -0.3757943
000200 d4 0f df 3e 86 9b 4d be 2f 79 8b 3e 78 32 19 3d
       0.43566763 -0.20078859 0.27240893 0.037401646
000210 3c 34 1c 3f 1a 0d 85 bc 29 cd c9 3e 75 71 17 3f
       0.61017203 -0.016241599 0.39414337 0.59157497
000220 d2 61 52 3e ab d3 e5 be 44 b4 bc be 40 2f 14 be
       0.20545128 -0.44888052 -0.36856282 -0.1447115
000230 d7 67 fa 3e ae d9 90 be 89 aa 38 be e0 7f 24 be
       0.4890735 -0.28291076 -0.18033804 -0.16064405
000240 b9 6d 1b 3f 5c 70 7a 3e 8c 4f 37 3f d2 c9 c0 3e
       0.607143 0.24456924 0.71605754 0.37653977
000250 4f 58 3a 3f 53 27 13 3f bf d4 b0 3e 62 74 ae 3e
       0.72791 0.5748188 0.34537312 0.34073168
000260 44 08 0f bf 2e 58 d5 be e0 51 39 3e d3 c6 25 be
       -0.5587199 -0.41668838 0.18097639 -0.16189127
000270 7d c3 0e 3f 4b 13 af be 6e 2b 67 be 93 d9 7b be
       0.5576704 -0.34194407 -0.22575161 -0.24594717
000280 d6 20 5b be 73 b5 0b be 0a a2 ec bd e1 b4 1f be
       -0.21399245 -0.13643436 -0.11554344 -0.15596344
000290 00 46 fc bd c5 e0 72 be 0f 13 50 be 6b f5 93 be
       -0.12318039 -0.23718555 -0.2031977 -0.28898177
0002a0 c4 97 2a 3f cb f3 e8 3e e3 eb ea bd 20 00 17 3f
       0.66637826 0.454985 -0.11470773 0.58984566
0002b0 83 03 c4 be 18 48 78 be 28 b6 7b 3e 4e e3 d0 bd
       -0.3828393 -0.24246252 0.24581206 -0.10199605
0002c0 21 6b 70 be 68 40 fd 3e 59 ed e8 bc 35 b5 0b 3e
       -0.23478366 0.494632 -0.028433489 0.13643344
0002d0 9b fa 2a bd 73 d6 cb 3e 40 4b 1b 3f 49 18 b0 3e
       -0.041742902 0.3981205 0.606617 0.34393528
0002e0 51 bf 2c 3d c2 6d d0 3e a7 5e 04 3f d2 c5 59 3e
       0.04217464 0.4070874 0.5170693 0.21266869
0002f0 e3 94 b1 bd 5d 51 63 3d ec 50 8b 3d 43 a7 40 be
       -0.08670976 0.055497516 0.06802544 -0.18813805
000300 30 db 34 bd b9 c8 14 be b3 f2 65 3d 2e 02 91 3e
       -0.044154346 -0.14529695 0.05613966 0.28321975
000310 b2 e5 c3 3e f0 37 f0 3e 3b e9 d4 bd 27 56 1f 3f
       0.3826118 0.46917677 -0.10396048 0.62240833
000320 b7 a7 5e be 27 10 cb 3e b5 02 68 3e 9b f1 0d 3f
       -0.21743666 0.3966076 0.22657283 0.55446786
000330 5b b2 97 3e 6b 7a 0f 3e b6 9d ba 3e 97 19 8a 3e
       0.29628262 0.14011542 0.3644845 0.26972649
000340 a2 6f ed 3e c3 15 c5 3e b9 c3 b1 3e f1 bd b3 3e
       0.46374232 0.38493165 0.34719637 0.3510585
000350 65 1c 19 bf 7c 08 35 be b5 01 a2 3e 40 13 dd bd
       -0.5980895 -0.17679018 0.31641927 -0.10794687
000360 d5 0b f6 3e 24 e2 09 3f b9 c4 14 3e fe 23 f6 3e
       0.48055902 0.5386069 0.14528169 0.48074335
000370 f1 98 86 3e 6c 4c 35 3f 0b 79 6f 3d fc 55 6a be
       0.2628856 0.70819736 0.058465045 -0.22884363
000380 32 a0 f5 be 5d e7 eb 3e 2e 02 a1 be c8 ea 1d bd
       -0.47973782 0.46074954 -0.31446975 -0.038553983
000390 7b 49 f7 3c dc 1a 06 3f aa 62 ed 3e ba 0c 29 3f
       0.030186405 0.52384734 0.46364337 0.66035044
0003a0 00 72 2d 3e e0 a9 f5 be c3 e9 48 bc 2e 9b 7c 3e
       0.16938019 -0.47981167 -0.012262764 0.24668571
0003b0 81 2e 00 39 f4 aa 59 3e 6a d2 e7 bc 99 92 71 bc
       0.00012224355 0.2125662 -0.028298575 -0.014744424
0003c0 40 a5 18 3f 8a 79 db 3e 3c a5 33 bf 4f a7 28 be
       0.5962715 0.42866164 -0.70174 -0.16470073
0003d0 a3 1a dd 3d 59 df 0d 3f a8 10 0f be 43 f5 1c 3f
       0.10796096 0.55418926 -0.13971198 0.6131174
0003e0 d1 f5 ec bd 17 34 a3 3e a2 8d c3 bd 08 63 de 3e
       -0.11570323 0.3187568 -0.09548499 0.4343493
0003f0 13 f2 85 bc 4d 17 00 3f 62 e9 03 3f a6 d5 24 3f
       -0.016350782 0.50035554 0.5152799 0.643885

l1.bias f4 [8]
000000 30 10 ee bd b0 51 36 3f fb 37 cd 3e cb ad 83 3f
       -0.11624181 0.71218395 0.40081772 1.0287412
000010 ef 1d 19 3f 51 ac f5 3e e8 89 31 3f fa 38 3b 3f
       0.598113 0.4798303 0.69351053 0.73133814

l2.weight f4 [8, 8]
000000 6a 5a bf bc e8 6e 52 bf 76 2d 81 bf 65 cb 2c 3f
       -0.023358542 -0.8220048 -1.0091999 0.67497855
000010 60 74 84 3d 87 8c 71 3f 60 ce 14 3f 5d ea 72 3e
       0.06467509 0.9435505 0.58127403 0.23722215
000020 ab 18 cf bd 45 9b 23 be 3a 7c 7a 3d 55 c0 5d bf
       -0.10112127 -0.159772 0.061153628 -0.866216
000030 fa 26 31 3f f9 63 7f 3e dd 58 4f bf c9 a0 46 3f
       0.692001 0.2494048 -0.8099497 0.7758909
000040 db 13 90 be f8 c8 42 be a7 10 92 be 00 79 3f bc
       -0.2814015 -0.19021976 -0.2852833 -0.0116865635
000050 4a bd 57 3e 98 cf 9f be cc cd a6 be a8 2d 5d bd
       0.21068302 -0.3121307 -0.32578886 -0.05399862
000060 5a 66 60 3e c8 bc 49 3e 11 da 81 bf 71 31 56 3f
       0.21914044 0.1970092 -1.0144674 0.8366919
000070 fa f0 97 3e 1a 9b 4b 3f 2e 5f 31 bf 5b e8 5d 3f
       0.29676038 0.7953354 -0.6928586 0.8668267
000080 64 92 5c 3c 46 44 25 3f 94 9f 1a 3e 50 d6 45 3f
       0.013462637 0.645573 0.15099937 0.7728014
000090 b0 52 44 3f c5 1b 7d bf 93 6b 03 bf 98 05 6e 3f
       0.7668867 -0.988705 -0.5133602 0.92977285
0000a0 c9 50 77 be b1 e8 6a 3f c6 41 9a 3f f0 a6 3c bf
       -0.24151911 0.9176131 1.2051322 -0.73692226
0000b0 5a 15 5b 3f 87 49 1d 3f 51 33 72 3f f7 2e 9f 3d
       0.85579455 0.6144032 0.9460955 0.0777263
0000c0 88 f3 1c be 29 19 96 3f fe a8 0a 3d 96 22 fe 3e
       -0.15327275 1.1726428 0.03385257 0.49635762
0000d0 82 bf 1c 3d 84 52 78 bf cc 62 95 be 84 8e fc 3e
       0.038268574 -0.9700091 -0.2917694 0.4932748
0000e0 8d cb 06 be 7c 82 3d 3e ed 7a aa be 00 63 a9 3f
       -0.13163586 0.18506807 -0.3329691 1.3233337
0000f0 f5 f0 9a be ad 63 11 bf 55 7f b3 3f 60 16 b2 3d
       -0.3026196 -0.5679272 1.4023234 0.08695674

l2.bias f4 [8]
000000 57 ec 34 3f ad 95 77 3e a2 de 4d be b1 9d be bc
       0.70673126 0.2417819 -0.20104459 -0.023268552
000010 e0 9e 06 3f fe b0 cc 3e e6 43 29 3f 38 9d 49 3f
       0.52586174 0.39978784 0.6611923 0.7875552

l3.weight f4 [6, 8]
000000 8e f6 45 be 04 07 21 bf 00 6b 19 3d 8f 42 21 bf
       -0.19332334 -0.6290133 0.03745556 -0.62992185
000010 c9 79 16 bf bf 61 30 3f 1b bc 26 bf 45 df 00 bf
       -0.5877958 0.6889915 -0.65130776 -0.5034068
000020 25 33 b4 bd 16 cc 4e bf a8 d5 13 be b9 35 e3 bf
       -0.087988175 -0.8078016 -0.14436972 -1.775077
000030 3a 9f d3 3e 80 8c d9 bd d4 18 0f 3f 39 00 24 3f
       0.41332418 -0.106225014 0.5589726 0.6406284
000040 a9 4d 9c 3d 40 73 84 bf a0 c1 bf 3d 14 af ad 3f
       0.07632 -1.0347672 0.09363103 1.3569055
000050 27 4d d8 3e fe e3 73 bf aa 4f f7 3e 22 ae 09 bb
       0.42246363 -0.95269763 0.48302966 -0.0021008332
000060 a0 de 11 3f 47 9a 30 3f 62 45 45 3e ab f6 4a 3f
       0.56980324 0.6898541 0.19264749 0.79282635
000070 c8 f2 71 3d e2 4b bb be 6a 77 7c bf 10 82 54 bf
       0.059069425 -0.36581331 -0.9861971 -0.8301096
000080 3d 19 65 3f 95 8a 12 bf fc 34 4d be d2 f1 87 bb
       0.89491636 -0.5724271 -0.20039743 -0.0041487003
000090 68 c1 3d bf 84 62 f2 be 67 1a 6d bf bc 1f 48 3f
       -0.7412324 -0.47340786 -0.9261841 0.7817342
0000a0 c8 ee 1b bf f7 fb 25 3f ac 6c b2 be 1f 71 2f bf
       -0.60911226 0.6483759 -0.34848535 -0.68531984
0000b0 ed 00 02 3f 6c 83 fb bc 52 70 c0 3e 12 eb 75 bf
       0.5078266 -0.030702315 0.37585694 -0.96061814

l3.bias f4 [6]
000000 cb b0 fd 3c 4b 1a d1 bd 9c a7 5d be 0b 96 97 3c
       0.03096809 -0.10210093 -0.21645969 0.018504163
000010 98 62 cb 3e fb af 99 be
       0.3972366 -0.30017075
